configs/config1/model_TSX_new.pth (torch, 209025 bytes, 14 tensors)

network.0.weight f4 [16, 8]
00000000: 753a 9dbf 01f1 12bf e5f7 013e fafd 9ebb
00000010: 7f10 d83d aba5 8ebc 9dfa 46bc 9702 0cbd
00000020: 7aad a73c a290 10bd cf26 fbbe 59e5 093c
00000030: 09f0 1c3e d969 55bc ad3a 27bd eb78 84bd
00000040: 730c e6bd cd4a 2f3d 3808 653f 0500 083c
00000050: db05 993e beae dfbb 6105 86bc b95d 923f
00000060: 4370 cabc ca69 e83b 9cc2 62bd a41a b2bd
00000070: d1a9 593d 33df 48bc 771c c7ba f2cd 8cbd
00000080: c952 4fbf 615f 95be 9dc0 f33e f448 8a3a
00000090: 444e 1a3e c595 bbbc bb9d 043c 28d4 8c3d
000000a0: 1a9a c0bf 8516 4cbf 8c86 a33e 2211 f13a
000000b0: 7cf5 eebd c39d 5d3c c8ef c5bb f48e 31bb
000000c0: 885b b93d 56bb 9c3c ee75 f13e 50cb 4abf
000000d0: e50b b4bc ed33 85bb ae83 a8bb 6134 29bd
000000e0: bcff ef3e 3dcd 1b3f bc1b 22be 0cbf 1d3b
000000f0: 4add 3e3f acb5 22b9 d52c 043c a180 d73b
00000100: c5a5 b9be a839 abbc b586 103f 1d41 eebc
00000110: 55a7 463e 9f27 d33c e377 ae3c 5483 f83c
00000120: 8c4a e73e ab3a cabd 33b7 a63d 4eac 51bb
00000130: aa82 6fbf afed 50bc 0921 3e3d b123 97bc
00000140: 1c4f 21bf 2ace 9ebd 3018 c5bc a46a a439
00000150: 9d8e 7c3e 4e21 8abb 0056 163d f0c9 b0bc
00000160: 624b b13d 8c91 263d 2e52 d33c 60e3 103d
00000170: 1170 b03d 6382 0cbc d804 7ebc fac2 6dbe
00000180: 2816 d9bd 3c65 ec3d b834 7bbe 21a7 19bb
00000190: 0063 0cbe 353b b2bc 3bff a13d df00 32bd
000001a0: 1bae 24bd a346 9fbd 95f8 f5be 126b 853c
000001b0: 05ad 5abc a064 983e 4200 99bc 83ae b1bd
000001c0: 78e3 3ebe 9bc7 85bd 4433 19bf 6028 33bc
000001d0: d7f2 91bd 0d01 0a3c 99ec a33c 2ed0 1e3e
000001e0: 395f b9bd de25 0a3f b3e2 a9be 78ff 263b
000001f0: 28bf 9b3f 42f0 c9bb 8c1f 9eba 2446 ab3b
-1.2283465 -0.5739899 0.1269222 -0.0048520537 0.105500214 -0.017412981 -0.012144712 -0.034182157
0.020468462 -0.035294183 -0.49053046 0.008416497 0.15325941 -0.013025724 -0.040827442 -0.06468376
-0.11232843 0.042795945 0.89465666 0.008300786 0.2988728 -0.006826251 -0.016359987 1.1434852
-0.024711734 0.007092689 -0.055361375 -0.086964875 0.053140465 -0.012260246 -0.0015190978 -0.068752185
-0.80985695 -0.2917433 0.4760789 0.0010550306 0.15068918 -0.022898564 0.0080942465 0.06876403
-1.5047028 -0.7972186 0.3193859 0.0018391947 -0.11667916 0.013526383 -0.006040547 -0.0027093263
0.09050661 0.019132297 0.47160286 -0.7921648 -0.021978328 -0.004065028 -0.0051426506 -0.041309718
0.46874797 0.60860044 -0.15830892 0.0024070172 0.7455641 -0.00015517202 0.008067329 0.006576613
-0.36259285 -0.020901516 0.56455547 -0.029083783 0.1939977 0.025775729 0.0212974 0.03033606
0.45174062 -0.09874471 0.08140411 -0.003199357 -0.9355875 -0.012751981 0.046418224 -0.018449636
-0.63011336 -0.077541664 -0.024059385 0.0003135997 0.24663778 -0.004215396 0.03670311 -0.021580666
0.08656956 0.040666148 0.025796022 0.03537309 0.08615125 -0.0085760085 -0.0155040845 -0.23218909
-0.10599929 0.115427464 -0.2453183 -0.0023445564 -0.1370964 -0.021756748 0.079100095 -0.043457862
-0.040205102 -0.07777145 -0.48041216 0.016286407 -0.013346915 0.2976427 -0.01867688 -0.086758636
-0.1864146 -0.06532212 -0.5984385 -0.010934919 -0.07126396 0.008423102 0.02001028 0.15509102
-0.090513654 0.5396403 -0.3318077 0.002548186 1.2167711 -0.006162674 -0.0012063845 0.0052268673

network.0.bias f4 [16]
00000000: 3dd3 8b3f b0dd bd3d 8b8b 2f3f 0a1d dabc
00000010: 5c99 963f 1bda 813f 18b9 d53f 0816 3c3d
00000020: 2ddf 493f 142a df3e ee86 3f3f cbe0 99bd
00000030: a689 393e 7358 9e3e 5eaa 84bf 025d 37bf
1.092384 0.09270799 0.685723 -0.026625175 1.1765552 1.0144686 1.6697111 0.045919448
0.78856164 0.4358679 0.7481526 -0.07513579 0.18118915 0.30926856 -1.0364492 -0.71626294

network.2.weight f4 [32, 16]
00000000: 65cf 2ebf 7fe5 4b3e a2cb 1dbe d467 9ebe
00000010: 0790 7e3c 1001 b3bd 4d1a d0bc 55c7 3abe
00000020: e2da de3e 6803 5cbf 8646 ae3e dbb7 f1bd
00000030: 2b33 03bc cfdb 26bd 76ae f13e edfe 05bf
00000040: 3111 c53c bab2 86be 3918 f63d 164a 07be
00000050: ff12 463d 6920 5bbd 2d2c 95bd 101c 2a3f
00000060: 7c6a a43e c2f7 05be d0f9 a53e 6b60 f4bd
00000070: bb7e 323e c990 f83d e54d 153e 4287 a43e
00000080: 9a14 29bf c9c7 ab3d e2a5 7bbd 9ab3 3d3d
00000090: 5b4c 373f b7ec f8be c0c9 ad3f de5c 573e
000000a0: b330 8dbe f3f8 5c3d dd34 67bf ac13 233e
000000b0: e80a a7be 7d29 e53c b917 a0bb 2ae3 8bbd
000000c0: 6f0f 01bd 0c09 b0be bcaf 28be bda0 cb3d
000000d0: d982 1fbe 9030 56be de1a 95be c792 ef3e
000000e0: a5b0 eb3e 65dc 13be d638 5bba ff17 15be
000000f0: 6027 7f3e b95e 11be b5db edbe 8800 f53e
00000100: cca0 7ebd 8e35 f5be 0dee e43e a02f 59bd
00000110: ff47 993e 77ea 8abd 4a7d f9bc 8732 223d
00000120: 8306 c63e be0d 01bf b3bc 32bf 2147 9fbd
00000130: dfc1 1bbf 9061 f83b e78d 46bf 2d65 a23d
00000140: 9c5c f5be 751f 743d 9799 a1bd 30ab 4fbf
00000150: 4642 893e e543 953e 3505 203e 8ebc 07bd
00000160: 53f1 f7be 37d5 b43e 243f ed3e 387f 593d
00000170: 184d 32be e315 26be c352 a53c 92fb 033e
00000180: aefb ef3d 438d 26bf a586 2e3e 0b27 913e
00000190: 1649 f93e a60c 6dbe 830c e2bd 0602 24be
000001a0: db62 c2be a973 f83d f6d6 09be 45a7 3c3f
000001b0: 05ad 513c fc2e 913e 833b cf3e 627a 6d3e
000001c0: fac2 373e 76bd 073e 8989 3f3f de78 19be
000001d0: d55c 7e3e 136c 3ebd bdf1 bf39 120b 4a3e
000001e0: 6d3a 0dbf 98a5 0dbf 3a39 ac3e c54c 14bf
000001f0: 07bf b63e ef82 703d 048b 22bf 9d3e 02bd
00000200: 11c0 31be e08e 7f3e 218b d43d 0c80 e83b
00000210: 863d 00be 677f 6d3e d65a a63e c076 a4bd
00000220: 90a1 073f 8e35 1ebf dd46 083f e6e4 48be
00000230: d1b9 d23e b47c a73e fad8 41bf db5a 943e
00000240: e512 c9bd 0211 00bf a2e2 d53f d460 0b3e
00000250: 9d0a 7b3e 4a19 ac3d da3f 2dbe 83b7 04be
00000260: d815 2f3e ae30 08be a892 8dbe d875 85be
00000270: 4434 39be ae12 aabe 87bc 8ebf f573 0ebd
00000280: 4f8d a1bc 7b23 c0be 570f ee3c e2db f93d
00000290: 631b e83a e8da 26bf f0ba 38bf 4f28 babe
000002a0: 1b00 25bf 9e72 db3e 61fc 02be 819b 793d
000002b0: cd11 c1be f4f9 aa3a 366f 01bf 1070 583e
000002c0: e181 db3d 8ba9 c83e b778 d3bc 986a 493c
000002d0: 642c 8ebe 0f8a 8e3d 3cf1 05c0 1346 bd3d
000002e0: 0bdc 36bf 8c17 3abe 1d9b e33d c929 903e
000002f0: ccdc c53d 8c8d f73d 0241 5a3e 0893 13bd
00000300: 2617 8c3e 70d8 a83e b2f0 55bd fccc 8d3e
00000310: 6dfb 073e bbe6 87be 8ac3 963d d4ed 11bf
00000320: 41bb 4cbf 8583 a8be e6b9 ac3c cd7b e03d
00000330: a952 b5be dfe8 f1bd 08ba 983e e61c f53e
00000340: 4f59 fbbe 51f7 bdbe 0db3 093e ca24 eabd
00000350: a477 e9bd 490d 5d3e bafc f83d 2de6 a33d
00000360: d8a2 3fbf 757f 69bf ddcb 003f 6edb a13e
00000370: 16d3 ed3d d228 333c 990e 92be e1d4 1bbf
00000380: 7bb3 803e 12aa 9bbd 17d6 93be 329f 42bd
00000390: e810 77be f3c5 433f c706 c83e 2f8c 95be
000003a0: df5a 04be 7c65 bd3e 2e13 303e 31cf 9d3e
000003b0: c736 5fbe 6940 8a3d 6b41 003f 1877 5b3e
000003c0: 681e b6ba 4d68 f8ba 41c1 84ba 8783 903c
000003d0: 4787 593b c55b 023b 0047 b03a affe d43a
000003e0: 8a80 9cbb b51c 733a 1b8c f2ba 81d6 48bc
000003f0: 8081 a93a 1797 a039 ac46 0a3b b3a7 edba
-0.6828521 0.19911765 -0.15409711 -0.3093859 0.0155372685 -0.08740437 -0.025403166 -0.18240102
0.4352637 -0.859427 0.3403818 -0.11802646 -0.008007805 -0.04073697 0.47203416 -0.5234211
0.024056049 -0.26308233 0.12016339 -0.13211855 0.04835796 -0.053497706 -0.072838165 0.6644907
0.3211249 -0.13082793 0.32417154 -0.11932453 0.17431156 0.121369906 0.14580496 0.32134444
-0.6604706 0.08387715 -0.061437495 0.04631386 0.71600884 -0.486181 1.3577194 0.2103152
-0.27576217 0.053948354 -0.9031504 0.15925473 -0.32625508 0.027973885 -0.0048856405 -0.068304375
-0.03150886 -0.34381902 -0.16473287 0.09942768 -0.15577258 -0.20916963 -0.2912206 0.4679167
0.46033207 -0.14439543 -0.0008362656 -0.14559935 0.24917364 -0.1419629 -0.46456686 0.47851968
-0.062165067 -0.4789242 0.44712868 -0.053023934 0.2993774 -0.06783002 -0.03045525 0.039598968
0.38676843 -0.50411594 -0.6981918 -0.07777239 -0.608427 0.0075799897 -0.77560276 0.07929454
-0.47922218 0.059600312 -0.07890623 -0.81120586 0.26808375 0.29153362 0.15626986 -0.033138804
-0.48426303 0.3531892 0.46337235 0.05309984 -0.17412221 -0.16219287 0.020181065 0.12888935
0.11717926 -0.650593 0.1704355 0.283501 0.48688573 -0.23149356 -0.11037543 -0.16016397
-0.37966046 0.121314354 -0.13460907 0.73692733 0.012797599 0.2835616 0.4047509 0.23191217
0.17945471 0.13255867 0.74819237 -0.14987513 0.248401 -0.046489786 0.00036610468 0.19730785
-0.55167276 -0.553308 0.3363741 -0.5792964 0.35692617 0.058718618 -0.6349337 -0.031797994
-0.17358424 0.24956846 0.10378099 0.0070953425 -0.1252347 0.23193131 0.32491177 -0.08030462
0.529809 -0.6180047 0.5323313 -0.19618568 0.41157392 0.32712328 -0.75721705 0.28975567
-0.09818057 -0.5002595 1.6709788 0.13611156 0.24515767 0.08403261 -0.16918889 -0.12960629
0.17098176 -0.1329982 -0.27650952 -0.2606647 -0.18086344 -0.33217376 -1.1151284 -0.034778554
-0.019720702 -0.3752707 0.029060049 0.122001424 0.0017708357 -0.65177774 -0.72160244 -0.36358878
-0.64453286 0.42860883 -0.12791587 0.060939316 -0.37708893 0.0013044463 -0.5056032 0.21136498
0.10718132 0.3919185 -0.025814397 0.01229348 -0.27768242 0.06959926 -2.0928488 0.09241881
-0.7142951 -0.18173045 0.1111357 0.2815688 0.09661254 0.12087545 0.21313861 -0.03602889
0.2736141 0.3297763 -0.052231498 0.27695453 0.13279505 -0.2654322 0.07361515 -0.5700352
-0.79973227 -0.3291284 0.021084737 0.10961113 -0.35414627 -0.11811995 0.2982943 0.4787361
-0.49091575 -0.3710275 0.13447209 -0.11432798 -0.11399773 0.21587099 0.12157579 0.08002887
-0.74857855 -0.9121011 0.5031107 0.31612724 0.11612527 0.010935025 -0.28526762 -0.608717
0.25136933 -0.07600798 -0.28874275 -0.0475151 -0.24127543 0.7647392 0.3906767 -0.29208514
-0.1292529 0.3699149 0.17194816 0.30822137 -0.2179824 0.067505665 0.5009982 0.2143215
-0.001389456 -0.0018951982 -0.0010128395 0.017640842 0.0033192204 0.0019891125 0.0013448894 0.0016250218
-0.0047760652 0.0009273992 -0.001850489 -0.012258173 0.0012932271 0.0003063015 0.0021099253 -0.0018131643

network.2.bias f4 [32]
00000000: 8069 c63e 3c62 30be 2b1b 13be c56f 263e
00000010: 07bd a9be ab8c 27be 1ab6 be3e dfd1 c63e
00000020: ae4b 8e3d f3cf a0bf e6d8 01be 1d58 e93c
00000030: 1076 7dbd f521 2a3d 7e30 733d b273 e0b8
00000040: 73d2 5fbf 3842 c63e c6f1 ec3e 7f98 07bf
00000050: 8903 56be 5dcc 923e 1864 753f 1357 a2be
00000060: eb58 1ab9 e1fa ad3d 9a97 95be e281 60bc
00000070: 75fe 3339 aa89 773e 6aca 833e 6196 a7be
0.38752365 -0.17224973 -0.14365833 0.16253574 -0.3315203 -0.16362254 0.37248307 0.38831994
0.069480285 -1.2563461 -0.12680396 0.028484398 -0.06188017 0.04153629 0.059372418 -0.00010702702
-0.87430495 0.38722396 0.46278208 -0.52967066 -0.20899786 0.28671542 0.95855856 -0.31707057
-0.00014719709 0.08495117 -0.29217225 -0.0137028415 0.00017165563 0.24173608 0.25740367 -0.32731918

network.4.weight f4 [64, 32]
00000000: 25d4 143d 358e 283f e7d5 0e3f d60c 69bf
00000010: 53c0 25bf 52f0 35bd 2d00 0b3f 3ab4 0dbf
00000020: 821a bdbe 8d47 583f 3b46 d2be 0937 fa3e
00000030: aaf0 7cbc b4ed 103f 12ca 17be 282e 4eb9
00000040: 58d8 88be da9c 2ebf cda0 893e 0ee8 f4bd
00000050: ba3e b0bd f61a 523e be41 2c3f d550 993e
00000060: 44a1 d5b8 8485 0cbf fbbb 303e f215 49be
00000070: cd5c 1939 a1f4 85be 3c2b 4c3e 4710 ccbe
00000080: 3461 cebb 7b47 6b3c 2c8b ab3d b5d2 c3be
00000090: fd19 37bf 14db 023e fdbf aa3d d7a5 66bf
000000a0: cb10 723e de35 fabe 8845 ccbe 7b4b 1dbf
000000b0: 88ac 89bd 315a 31bd 272d 933e 0668 f2ba
000000c0: 4067 90be b3ff edbe d08f 7b3e 9fc0 3ebf
000000d0: a931 f6bc aed8 3abf c954 c6bd cd41 4bbd
000000e0: 18a9 ebba c97e 2f3f 026c 943e 260e ba3e
000000f0: b6a3 ec3a 9e76 b13d 3c2b bdbe 4c4b 0abf
00000100: e66f ab3d d7a5 3d3c 2b48 903d 619c 01bf
00000110: 9222 103f 0c22 843d e04b 2ebe 4699 e53e
00000120: 2bdb c93e a067 983e b72e 14bd 330b 663e
00000130: 9989 013f 6fbc 3abe c47a 26be e447 83bb
00000140: 4a7b 24be 5520 b03e bfde 943c 91bc 6a3c
00000150: 7f15 453e b192 a0be c8d8 033e affe 8b3e
00000160: c9e7 55bb 9a32 acbe 3882 e2bd 766e 37bd
00000170: d1a0 683b 6c00 d63e 2809 8a3e 0c80 25bf
00000180: 6cae c83e 8e70 34bf 85e7 8cbe f39f 8e3f
00000190: b045 57be b699 883e 2b7c bd3e a38f 4bbe
000001a0: 3bee ad3e 2027 72be aafd bb3d 6678 373e
000001b0: 9776 b83e beb6 503f effe 243f ae0e 0137
000001c0: 40ff 833f 5c71 ca3e e628 9cbe 73ea 52be
000001d0: 95c1 8e3e 3636 a93e 52b2 a9be 5e9e a23d
000001e0: ac9c b038 d4ad 863e b20b c6be 5629 0d3f
000001f0: a938 38b9 e4b6 83be b24c 953f 4b19 aa3d
00000200: 9fa7 833d 52b5 1a3e ba71 ffbc 2d67 02bf
00000210: a39e f2be 63a1 f73d 291a 633e 2517 343f
00000220: c48b a23e 1dd9 b73e a3b1 d7be 16dd 17be
00000230: 6580 cdbd e762 b2be 06b3 e7be 5056 a0b9
00000240: 8f7b 8e3e 548b 023f 8332 cdbd bf7a 6d3c
00000250: 7a5f 0c3e d874 acbe 53f4 04bf aeb4 21be
00000260: 2b52 77b9 ed97 223f 39dd aabe 166e b43c
00000270: 792f 8539 bc69 623e 9f6e 543f d5ff 5cbd
00000280: 78af 463f df90 7ebe 4cc8 6ebe b181 de3e
00000290: 611b e9be 3aa8 d5be 8044 04bf 3f64 383f
000002a0: 731e ffbe 7e7e 523f 038c a3be ed62 fa3d
000002b0: 5170 4e3d ff65 043e 5e56 883f f5cb 403b
000002c0: 2f00 68bf cbe1 6ebe 0d8b 913d c964 293e
000002d0: b3c9 28bf 2a0b 72bf 3011 a1be 71c6 7ebe
000002e0: 045f 193b fc9f 0abf 3fc9 83bd aaf0 5c3f
000002f0: f272 25bb decc 1bbf 4ff1 c23c 2498 033f
00000300: 3ead 44be c1de 0a3c 1666 df3e c2d2 673c
00000310: 28d1 353d 02da 903c a100 e5bd 5c05 093d
00000320: 7bf6 a93d 22ec 2b3d 8e41 13be 8ab7 f6be
00000330: abfd 10be 9ca0 85bc b380 223e 83d8 02ba
00000340: 67b4 4f3e f317 85bc d87b 15bf 6ce5 bf3e
00000350: 9c7d af3d 5d02 a63e 6918 4c3f 9153 5e3e
00000360: a40c 94b9 8c78 80bc a598 e23a 5f82 063e
00000370: e150 dd39 95a8 68be 82fb d4bb 36bc c93e
00000380: 0181 39bf 5c1f ba3f 81f5 3b3d 4a33 e8be
00000390: 07a4 e0bd 9c05 aebe 1c53 893d 220f cdbc
000003a0: f64a d9be 76a8 7bbe 61a1 b3be 8fc4 fcbd
000003b0: 81e9 e0be 05e6 b33f 921f cdbe c789 97bb
000003c0: 6aa6 1dbf 0877 afbe b61a 8a3e c4e1 e53e
000003d0: 0fc5 a43d fd03 323e a18d ccbe 0f54 fe3e
000003e0: d686 60bb a0cd 703e b118 41be a982 e0bd
000003f0: 1bfb 823b b19d 2c3e bd07 49bf ee41 aa3e
0.03633513 0.6584199 0.5579514 -0.9103521 -0.6474659 -0.04441864 0.54297143 -0.5535313
-0.36934286 0.8448418 -0.41069207 0.48870113 -0.015438238 0.56612706 -0.14823177 -0.00019662885
-0.26727557 -0.68208086 0.26880494 -0.119583234 -0.08605714 0.20518097 0.67287815 0.29944482
-0.000101866695 -0.5489123 0.17259209 -0.19637278 0.00014625788 -0.261632 0.19938368 -0.3985617
-0.0062982086 0.014360304 0.08376154 -0.38246694 -0.7152403 0.12778884 0.083374 -0.900968
0.23639219 -0.48869222 -0.39896798 -0.614433 -0.06722361 -0.043298904 0.28745386 -0.0018494136
-0.28203773 -0.46484146 0.24566579 -0.74512666 -0.030052977 -0.72986877 -0.0968414 -0.0496233
-0.0017979471 0.68552834 0.28988653 0.3633892 0.0018054161 0.086652026 -0.36947048 -0.54021144
0.08370952 0.011575184 0.07045015 -0.5062924 0.5630275 0.064518064 -0.17021132 0.448435
0.39425024 0.2976656 -0.036177363 0.2246521 0.5060058 -0.18235944 -0.16257769 -0.0040063728
-0.16062656 0.34399667 0.01817262 0.014327184 0.19246481 -0.31361917 0.12875664 0.27342746
-0.0032639375 -0.33632356 -0.110599935 -0.044783078 0.0035496245 0.41797197 0.2696011 -0.6464851
0.39195573 -0.70484245 -0.27520385 1.1142563 -0.21022677 0.26679772 0.37008795 -0.19879012
0.33970818 -0.23647738 0.09179242 0.17917022 0.36027977 0.8152884 0.644515 7.692417e-06
1.0312271 0.3953961 -0.30499953 -0.20597248 0.27882066 0.33049172 -0.3314386 0.079403624
8.4215164e-05 0.26304495 -0.38680798 0.551412 -0.00017568715 -0.25725472 1.166403 0.083056055
0.064284556 0.1510823 -0.031182159 -0.50938684 -0.47386655 0.12091329 0.22177948 0.70347816
0.31747258 0.35907832 -0.42127714 -0.14830431 -0.10034255 -0.34841082 -0.45253772 -0.00030581886
0.27828643 0.5099385 -0.100194 0.014494597 0.13708296 -0.33682895 -0.5193531 -0.1579158
-0.00023586366 0.6351307 -0.33371904 0.02202515 0.00025403107 0.22110647 0.82981294 -0.053954918
0.77611494 -0.24859951 -0.23318595 0.43458322 -0.455287 -0.4172991 -0.5166702 0.72027963
-0.49827918 0.8222426 -0.31942758 0.122259 0.050400082 0.12929533 1.0651357 0.0029418443
-0.9062528 -0.2332832 0.071066 0.16542353 -0.6593277 -0.94548285 -0.31458426 -0.24880387
0.002340258 -0.54150367 -0.06434869 0.86304724 -0.0025245515 -0.6085948 0.023796706 0.51404023
-0.19206712 0.00847596 0.43632573 0.01414937 0.04438892 0.01768208 -0.111817606 0.033452377
0.082989655 0.04197324 -0.14380476 -0.48186904 -0.14159267 -0.016311936 0.15869407 -0.0004991369
0.20283662 -0.016246771 -0.58392096 0.37479722 0.0856888 0.32423678 0.79724747 0.21711566
-0.00028238178 -0.015682481 0.0017287923 0.1313567 0.00042212664 -0.22720559 -0.0064997086 0.39401406
-0.7246247 1.454082 0.045888428 -0.4535163 -0.10968786 -0.33988655 0.06705305 -0.02503163
-0.42440003 -0.24575981 -0.3508406 -0.12342178 -0.4392815 1.4054571 -0.4006315 -0.0046245786
-0.6158205 -0.342705 0.26973504 0.44898808 0.080453984 0.17384334 -0.39951804 0.49673507
-0.0034260056 0.2351594 -0.18857075 -0.109624214 0.0039972193 0.1685703 -0.7852743 0.33253425

network.4.bias f4 [64]
00000000: 86e7 3c3f ae7b 1d3e 83a2 293f 6689 0ebe
00000010: 158e 293f 7e33 8a3d d92a 8ebd 667f 393e
00000020: 3fb6 6a3a b6f0 f5bd 6c40 d0be 6162 84be
00000030: 9bed e2be 04ec cb3e fb22 173f f7de 7ebf
00000040: a1c4 2c3e aaa2 143f 7765 d13f e0f6 93be
00000050: bec9 d23e a4bf 8d3d 97fd 6a3b 0244 4ebc
00000060: b9ac a73e bcda 6dbe bcc7 fabd d3a7 97bd
00000070: c7cf 023f 7f97 03bf ae05 583e c7ef 61bf
00000080: f57a 7c3e c9c3 a9be a1b6 97be dac4 dfbd
00000090: ef26 9f3b 3ba5 8d3c a481 6e3e 7639 c4bf
000000a0: 944f 9fbe f05d a6be 8ac6 813e fc56 533e
000000b0: 2ff6 6f3d 31b2 143f 3c9d 3abd afb1 1e3f
000000c0: 3b2f cabe f04c 13bf 7d3f 843e 947b 063f
000000d0: 314b 0cbf eba6 353f 2678 8bbe b2ef 05bf
000000e0: 5e91 193f ce57 5e3f 84a8 bd3c 79bc ceba
000000f0: a8d7 2f3f f1b2 853e d6d0 f0bd 369d 373c
0.73790777 0.15379211 0.662636 -0.13919601 0.66232425 0.067481026 -0.06941766 0.18115005
0.00089535484 -0.120088026 -0.4067415 -0.25856307 -0.44321904 0.39828503 0.5903775 -0.9955897
0.16871883 0.58060706 1.635909 -0.28899288 0.41169542 0.06921318 0.0035856718 -0.0125894565
0.32748964 -0.23227972 -0.122451276 -0.07405057 0.51098293 -0.5140304 0.21095917 -0.88256496
0.2465628 -0.33157185 -0.29631522 -0.10926218 0.004856936 0.017290702 0.23291641 -1.5330036
-0.311154 -0.32493544 0.25346786 0.2063865 0.05858439 0.580844 -0.045560107 0.61989874
-0.3948916 -0.5753927 0.25829688 0.52532315 -0.54802233 0.7095782 -0.27240103 -0.5231887
0.5998744 0.8685273 0.023151644 -0.0015772722 0.6868844 0.26113084 -0.11758582 0.011206916

network.6.weight f4 [128, 64]
00000000: eef0 5abe 9a90 cdbd 51b6 643e 3be7 a23d
00000010: 15b6 13be 0dfb 903e 5127 97be cc04 ce3d
00000020: c86f c2bb af86 c83d f75a 8b3d b9aa 64bc
00000030: 2d51 b23e 406b 923c 793f 943e 92eb 183e
00000040: 828a adbe bbb7 f83d 07ee 6abd faab 933e
00000050: 678e 92be 1120 363e 063a 8abc dc01 babe
00000060: 51a1 8bbe d24b e63e feb2 643e c4e0 373d
00000070: e6a5 8b3c 8826 70bc 33e5 81bd 43d3 63be
00000080: a6fc f0be d63b cebe 9ff4 cf3d c8a3 0cbe
00000090: 86a7 e13d 9516 2d3e 82de 943e 8870 7abe
000000a0: 6be6 683e 1a0d 07bd 410e 6c3c 8da2 9a3e
000000b0: 0896 6f3e ef82 0c3f 83c8 01bf c8da 943e
000000c0: 9da4 ad3e 7a25 eabe 4208 0bbf 628a 99be
000000d0: 9040 80bf d642 fc3d bb88 eabd 4c86 3c3b
000000e0: 40a0 5ebd 1436 413f cb08 27bc d76e 9ebd
000000f0: 2478 733e d7b7 ca3d 9f5d 0abe ceb7 843d
00000100: 8a27 173e 05be 63bf 63d0 bc3d b2e2 78be
00000110: ec81 a63d 8e38 12bd 99e5 573f 6b58 023d
00000120: 2384 503c be73 f13d ea86 b93d e02e e3bd
00000130: c547 5ebf a0ec 83bc 62a1 3f3f 9f1f babf
00000140: 3791 e1bc 4a17 093f 8762 853e 42a5 18be
00000150: cb43 403e 950a 853e 23ac d0bd 848e cdbd
00000160: 61c3 87bd 0d8a 963f 77dd 763e ca7b 8ebd
00000170: 2681 bc3e c231 85bd 6fd9 68bd c20c 13be
00000180: 789e d2be 4546 173d 77e9 ba3d 3cf2 6dbe
00000190: 3233 893d ca97 4abc ae60 f7be 9d0c 2bbf
000001a0: 801b 913e 9b95 fa3e 4756 78bc 8b9f 433e
000001b0: 63e5 593d a54f 123e 3fe3 b53c fa4d ca3d
000001c0: fb0b 523d 564e 183e ad10 0b3e b5bf bf3a
000001d0: b141 023f d58f 233e ae76 c5be b091 86be
000001e0: 7ff6 e0bc fb8c 40be c267 0f3d 2f34 a2bd
000001f0: 3ece 0ebe 40be 823e 79f4 17be 7196 753e
00000200: 51f9 d53c 2d49 7c3e 0e75 66be fd91 d8bd
00000210: 50ff 15bd 66ea fbbd 092b afbe 7bc4 36be
00000220: f46f 253b 78b8 843d 8278 ba3d 6171 8cbc
00000230: 18d0 e73e 91ff 90bd 128c 05bf c5d7 203f
00000240: 18a0 dabc 0c9d 3bbc d4aa da3e 46a4 56bd
00000250: 073b 02bf 7047 17be ac48 ec3c 4292 1b3e
00000260: b041 51bd 07bc 09bf 400d 9cbe cffc aabd
00000270: a362 74be 7bdb 573c a667 cabb b926 47bf
00000280: 4d56 d53e aa43 aa3d 46f4 9ebd 4814 0d3e
00000290: 412a d73c 7112 88be 25a9 20bd 3593 abbe
000002a0: f984 a4bd 1489 f1bd 8296 1c3e ebcf b53d
000002b0: 05b6 c8bd 1dd6 223e c30c a2be 8e24 283c
000002c0: 5412 5abd 2573 713e 0588 57be d571 bbbd
000002d0: 227b c7be 59a4 b53e 2e0f f13c 01b1 cd3d
000002e0: 3982 063e 185a 023f 36b9 2dbd ea39 dabb
000002f0: d623 e9bd 0211 33bd f6c0 593d 36a4 38be
00000300: 0589 c03d 8e59 f53c da3c 7a3d a9a4 c83b
00000310: a8a1 613d fe50 6b3b 6d64 06bf 469d 773d
00000320: dc61 ccbb b580 943d 8fc2 bc3d 47aa 593d
00000330: 5b6d 15be 5f05 7dbb 4323 14bf 5d2e 3e3f
00000340: 16de 193e a299 06bb bdcc d4be 39bf 21bd
00000350: 7c9c dbbe 2519 0c3d 33da a8bb 4aa4 fabd
00000360: f208 4d3d 0024 0fbf d5cd 0cbf e20e e8bd
00000370: 8987 423c 8def 493c a640 25bd 4a42 b0be
00000380: 6992 2b3e 84f5 3a3e 865c e4bd 7cf7 7f3d
00000390: b7fe 9abc 1418 793e bbc4 bf3c 82a5 21bf
000003a0: 08f8 863d b849 a1be 1075 63be e632 993d
000003b0: 5e20 2fbc b759 903e 4a9b 08bd 686f 9b3d
000003c0: 4017 943a 6c72 583c 98f2 513e de1f c3bd
000003d0: 5a0d a3be 88c9 223e 81aa 01be 4838 fcbd
000003e0: 2a77 39bd 5aea f0bc 6dee bd3c 2cf7 243c
000003f0: 08d0 d2bc 8ffa 12be 6a50 32bd cfbe 203e
-0.2138097 -0.10037346 0.22335173 0.0795426 -0.14424928 0.28316537 -0.29522184 0.10059509
-0.0059337355 0.09791314 0.068044595 -0.013956719 0.34827557 0.017873406 0.28954676 0.14933613
-0.33894736 0.12144419 -0.057355907 0.28842145 -0.2862427 0.1778567 -0.01687337 -0.36329544
-0.27271512 0.4497972 0.22333905 0.044892088 0.01704688 -0.014657624 -0.063425444 -0.22248559
-0.47067755 -0.40280026 0.1015408 -0.13734353 0.11018281 0.16903146 0.2907601 -0.2445699
0.22744147 -0.03297148 0.014407695 0.3020214 0.23397076 0.5488729 -0.5069658 0.29073167
0.33914652 -0.45731717 -0.54309475 -0.2998839 -1.0019703 0.123174354 -0.114518605 0.002876657
-0.054352045 0.7547314 -0.0101949675 -0.07735985 0.23776299 0.09898346 -0.13512276 0.064803705
0.14761177 -0.8896182 0.09219434 -0.24305227 0.081302494 -0.035698466 0.84334713 0.031822603
0.012726816 0.11789654 0.09058936 -0.11092925 -0.8682826 -0.016104043 0.74855626 -1.45409
-0.027535064 0.5355116 0.26051733 -0.14906791 0.18775861 0.25984636 -0.101890825 -0.10036948
-0.066290624 1.176088 0.2410792 -0.06957205 0.36817282 -0.06503631 -0.056847986 -0.14360335
-0.41136527 0.03693225 0.09126561 -0.23236936 0.06699218 -0.012365291 -0.48315948 -0.6681612
0.28341293 0.48942265 -0.015157289 0.1910383 0.053197276 0.14288194 0.022203086 0.09878154
0.051280957 0.14873633 0.1358058 0.0014629277 0.5088149 0.15972836 -0.38567108 -0.26283026
-0.027461288 -0.1880378 0.03501106 -0.079201095 -0.13945863 0.25535774 -0.14839353 0.2398317
0.02611986 0.2463729 -0.2250559 -0.1057472 -0.036620438 -0.12300567 -0.3421252 -0.17848389
0.0025243731 0.06480497 0.09105016 -0.017143907 0.4527595 -0.070799954 -0.52166855 0.6282924
-0.026687667 -0.011451017 0.42708457 -0.052402757 -0.5087132 -0.14773345 0.028843246 0.15192512
-0.051088035 -0.5380253 -0.3047886 -0.08349001 -0.23865752 0.013174887 -0.0061769066 -0.7779346
0.41667405 0.08313687 -0.07761435 0.13777268 0.026265265 -0.2657657 -0.03922381 -0.33510748
-0.08033175 -0.11793724 0.15291789 0.08877548 -0.098003425 0.1590199 -0.3165036 0.010262622
-0.053240135 0.2357908 -0.21047981 -0.09152571 -0.3896113 0.3547695 0.029426184 0.100435264
0.13135614 0.5091872 -0.04241296 -0.006659736 -0.11383788 -0.04371739 0.053162538 -0.18031392
0.094011344 0.02994993 0.06109319 0.0061231446 0.055085808 0.003590643 -0.5249699 0.060452722
-0.0062372517 0.072511114 0.092167966 0.053140905 -0.14592497 -0.0038607938 -0.57866305 0.74289495
0.15026125 -0.002053835 -0.41562453 -0.039489005 -0.42892826 0.034203667 -0.0051529645 -0.12238367
0.05005736 -0.55914307 -0.55001575 -0.11330964 0.011873134 0.01232518 -0.040344857 -0.34425575
0.1675507 0.1825772 -0.1115046 0.06249188 -0.018920286 0.24325591 0.023409238 -0.6314317
0.06590277 -0.31501555 -0.22212625 0.07480411 -0.010688869 0.28193447 -0.03335122 0.075896084
0.0011298433 0.013210874 0.20502698 -0.095275626 -0.31846124 0.1589719 -0.12662698 -0.12315422
-0.04527966 -0.029408623 0.02318498 0.010068696 -0.025733963 -0.14353393 -0.04353372 0.15697788

network.6.bias f4 [128]
00000000: ddd7 b2bd 81e5 1e3f dde8 133e ebf7 183e
00000010: 133f cbbe 630a 57bf 2832 86be 9599 36bf
00000020: ed72 3bbf c97d 653a d2e5 d3be 9a33 d9be
00000030: 6374 613f aa1a 93bf 34c5 0dbf 4f0e 083f
00000040: 1df5 76bf ce01 893f 8b51 b3be 2737 453f
00000050: d738 11bf b4a3 41be a28d 943f 9176 fabe
00000060: 12f6 49bf 3a3e 4bbe 58a6 acbc 7fd2 a9bf
00000070: a8e0 bcbe 94a5 843e ecf3 c9bd 7751 c0be
00000080: 9ab6 3a3f e90d 4fbf 76b4 f13e d57e 7dbe
00000090: 3595 c4be 5336 c2be 8996 30bf cea3 433e
000000a0: 417d 4b3f f439 abbe 40ec fbbe c2c3 e33e
000000b0: 1556 7f3e 4970 04be fc5f 86be beed c83e
000000c0: b1fb cabf 3901 9cbf e1da 37be ad2a 2abf
000000d0: ed63 953a 1433 77bf 7418 06be b51b be3f
000000e0: 5833 0ebf 2166 fe3e 043a 0d3e 6db4 06be
000000f0: 0985 22be b838 a3bd f9c3 a93d 7a52 f93d
00000100: 7682 cbbe 6da6 1abe 1112 53be aa32 c43e
00000110: 93ad 043e 6bee 1dbf 9e83 e33f 0ca9 0bbf
00000120: af20 d23e 2eb4 cc3e d73f fc3d 3d58 51be
00000130: 3032 883f ba94 3a3f 010c 3fbe adf3 2bbf
00000140: a119 233e f5af 1abf cedf 233f 6b8e 43be
00000150: 587a b2be 1638 0f3f 251d 593e f2b3 adbd
00000160: 6748 82bf 086e 07bd 7431 853d 8545 93bf
00000170: 25b0 4bbf 0ca8 b13d ed6c acbe 1357 e53e
00000180: 7666 96bf f409 0f3e fecc b9be fb2b 623f
00000190: c0f3 b1bd 087f 203f e91f c6be 15bc 3abf
000001a0: 3d4a d9be cfc1 62be 72f2 3fbe f1fb 8bbe
000001b0: 4c78 6f3f eadb 503e 172f 0abe 6d26 66bf
000001c0: ada4 753e e9b9 21bf ff84 7dbf 4be2 2dbe
000001d0: dacf 5d3f 64ec 97be 2056 15be 0032 5c3f
000001e0: 6178 73be 3d20 c13f cd08 c9be 2291 46be
000001f0: 2d6f db3d a9de cabf 342b ce3e e220 6cbc
-0.08732579 0.62068945 0.14444299 0.14938323 -0.3969656 -0.84000224 -0.2621014 -0.713281
-0.7322224 0.00087544 -0.41386276 -0.4242218 0.8806822 -1.1492512 -0.55379033 0.53146833
-0.96467763 1.0703676 -0.3502315 0.7703728 -0.56727356 -0.18910104 1.1605723 -0.48918584
-0.788911 -0.19847956 -0.021075413 -1.3267363 -0.3689015 0.25907576 -0.098609775 -0.37562153
0.7293488 -0.808806 0.47207993 -0.24755414 -0.38395086 -0.3793207 -0.689797 0.19105455
0.79488 -0.33442652 -0.49203682 0.4448529 0.24935181 -0.12933458 -0.26245105 0.39243883
-1.585806 -1.2187873 -0.1795459 -0.6647137 0.0011397578 -0.96562314 -0.13095266 1.4852206
-0.55547094 0.49687293 0.13791662 -0.13154764 -0.15871061 -0.079698026 0.08289332 0.12173934
-0.3974797 -0.15102549 -0.2061236 0.38319904 0.12956838 -0.6169192 1.7774541 -0.5455482
0.4104056 0.39981216 0.12316864 -0.20443816 1.0640316 0.7288319 -0.18656923 -0.67168695
0.15927745 -0.6042474 0.64013374 -0.19097297 -0.34858966 0.55944955 0.21202524 -0.084815875
-1.0178345 -0.03306392 0.06503573 -1.1505591 -0.7956565 0.086746305 -0.33676854 0.44792995
-1.1750019 0.1396864 -0.3628921 0.8834836 -0.0868907 0.62693834 -0.3869622 -0.7294324
-0.42439452 -0.22144245 -0.1874483 -0.27340654 0.93542933 0.2039639 -0.13494526 -0.89902383
0.239886 -0.631743 -0.9903106 -0.16980855 0.8664528 -0.2967254 -0.14583635 0.86013794
-0.2377639 1.5087963 -0.39264527 -0.19391301 0.107145645 -1.58492 0.40267336 -0.014412137

network.8.weight f4 [128, 128]
00000000: 77a5 bebe 3bfd 7b3f d69f fd3e 609d 0a3e
00000010: 88b5 023e c29d 993c b197 3bbd a5d9 43bf
00000020: 556f 74be 0ff1 c73e bad8 3fbf 58d8 333f
00000030: 6705 23be 1558 8f3c dfd3 04bf 1590 c33a
00000040: c7bc 103f bd75 d83e ebd1 92be 44c6 e3be
00000050: 61fb 2e3b a6cf 2bbe 3a5e 083f fd15 453e
00000060: 3e3e 203e b834 0a3f 7e51 81bf 6f59 373f
00000070: 8921 423f 4912 2f3e a668 8b3e 64c1 20bf
00000080: 4927 7dbf 4ba1 bebd 16fe ba3d 8858 15bf
00000090: 223b ca3e 2981 1dbe 3a1b 91be 0f97 b6be
000000a0: 906b a1be 3d4a 0e3f 1ccd dc3d c1f2 35bf
000000b0: 0f5c 943d 0f9b 893e 755b 223f 9637 25bf
000000c0: 1cad 3f3e d8bc 64bf 2988 b23e cea2 f33d
000000d0: 45c7 463e 570a 283e efc5 093f 803f 8ebd
000000e0: 5c76 e73e ef0d 693f 4a65 87be fdc9 50bd
000000f0: 8426 8b3f f567 d6bd 5c05 11be ec59 893f
00000100: 2121 afbe 1423 423d 3505 073f 0e8d 9ebe
00000110: abbe a3bd 7e7e c8be 3285 3bbe 08a8 843e
00000120: edd6 87be 79a0 94be 3641 febe 2b86 0f3f
00000130: a55e 4f3e dc73 113e c8ca 24bf 2289 8a3c
00000140: 45cc 87be 62d2 86bf 36c1 87be 9464 323d
00000150: 66dc 2b3f 8f65 9dbe c4f0 473e 0982 5fbf
00000160: e21b 83be 8cfe 2f3d c1d6 8c3c 3807 733e
00000170: 4c4f 0b3e 173c ecbd a82f 13be 411b 733e
00000180: cb20 93be 7ce2 bdbe 5494 0dbf 922e afbf
00000190: 08a6 8c3f e322 0d3f 0fc6 dfbd 2f40 84be
000001a0: 56b6 8e3f 038e a0be 9213 f9bc 81a2 f6be
000001b0: bc90 083e bd88 a6bf ae2a a7bf c024 703d
000001c0: b32f 6ebd bc06 a63e b0a7 c1be 3168 a73e
000001d0: 390a 8ebe 668e 943e f263 b83e 7067 babe
000001e0: b0c2 b8be e921 6a3e c597 c4bc e962 0a3c
000001f0: dc9c 05be 32c8 1e3e 5fff 35bd 7c80 2bbf
00000200: e1ce d2be 6138 643f 9fb6 42be 9868 41bd
00000210: 0a83 ef3e edf3 223f f043 b13c aa69 a43e
00000220: 22ec 46bf 1a8c 363f 2213 9f3e 04e5 25bf
00000230: 25ac 02bd 42ac 2dbf 22ee 3ebb 8558 05bf
00000240: b49e 2d3f a2b3 b3bc a09d b33e 4262 a03e
00000250: af2a 943e e7db 12be c458 d9be cf97 d7be
00000260: 7e45 9a3f 9ad0 5d3e 7807 ef3e c3b8 77bf
00000270: bd03 a63f cf1a cfbe 3935 dabe d767 9cbd
00000280: 9675 8f3e cc80 55be 53d0 a73e aa97 b3bf
00000290: 212f e9bd 3284 753e c5cb eebe 1419 003f
000002a0: f88c 3c3f 80a9 8dbf 050f 8d3c 6b39 5fbf
000002b0: 369a 54bf 3ddd 643e f3a4 acbd 9c42 793f
000002c0: 18f3 72bf 3baa d2bd 56f4 5ebe ee99 78bf
000002d0: cb4b dd3e 52f3 59bf cf80 75bf 15eb 333f
000002e0: db9f cf3e 98c2 78bf 3f86 2d3f e03f d0be
000002f0: e046 42be 5607 883c 4f0f 21bf a059 ad3e
00000300: a9c3 96bd 2d78 97bf 6d6e 2d3c 8323 993d
00000310: e54d 22bf 43aa 533f c47a 6dbf 7dbc 56be
00000320: 7a04 47bf 5510 303e ce3d c03f d478 b5bd
00000330: b644 563f dd41 a43d f553 34bf df19 9fbf
00000340: 386b 17bf 0068 78bf c9ac 003f 22a8 9bbd
00000350: d08f 113f e003 10bf 95c3 30be 8f98 5f3e
00000360: 62ec 23bf 401d b73c 1fec ac3e b521 96bc
00000370: 16c6 5c3e ac3c b7bf ea7d 383e ec78 863e
00000380: 0857 7bbf 32a4 433f 8e58 5cbd ecc7 943e
00000390: 12f4 bebe ce88 643e 0b6c 0bbf bdf9 1cbf
000003a0: 616e 83bf e16c 20bf f673 113e bf4a 6ebe
000003b0: a92a b0bc 7bbb 69be 59aa 073f 8fa4 44bf
000003c0: 5769 29be 421c 07bf 5aed e7be 7406 06bf
000003d0: 30a9 22bb f76c a4be add3 39bf f7b0 d23f
000003e0: 7fd4 cb3c 7eff 793f accc b63e 5753 a63f
000003f0: 4aef 6cbb 512c 9f3e 4a55 6e3a 0a2a b53f
-0.37235615 0.98433274 0.49536008 0.13536596 0.12764561 0.018751983 -0.04579896 -0.76503974
-0.23870595 0.390511 -0.74940073 0.7025199 -0.1592003 0.017498055 -0.5188579 0.0014920259
0.5653805 0.42277327 -0.2867578 -0.44487202 0.0026700126 -0.1677843 0.5326878 0.19246669
0.15648744 0.5398669 -1.0102994 0.7162084 0.7583242 0.17096819 0.27228278 -0.6279509
-0.9888807 -0.09308108 0.09130494 -0.5833821 0.3949824 -0.15381302 -0.28341085 -0.35662124
-0.31527376 0.5558203 0.10781309 -0.7107354 0.07244121 0.26876113 0.634208 -0.6453794
0.1871838 -0.8935065 0.34869507 0.11896287 0.19411953 0.16410194 0.5381765 -0.069457054
0.4520749 0.91036886 -0.26444465 -0.05097388 1.0871129 -0.10469047 -0.141622 1.0730567
-0.34204963 0.047396734 0.5274232 -0.3096699 -0.079953514 -0.39159006 -0.18312529 0.25909448
-0.26531163 -0.2902868 -0.49659127 0.560641 0.20250948 0.14204353 -0.6437192 0.016911093
-0.26523033 -1.0532954 -0.26514596 0.04355295 0.67133176 -0.30741546 0.19525439 -0.8730779
-0.2560721 0.042967364 0.017192246 0.23733222 0.13604468 -0.11534899 -0.14373648 0.23740865
-0.28735957 -0.37086856 -0.55304456 -1.3686087 1.0988169 0.5513136 -0.109264486 -0.25830218
1.1149395 -0.31358346 -0.03040484 -0.48170856 0.13336462 -1.3010479 -1.30599 0.058628798
-0.05815096 0.32427013 -0.37823248 0.3269668 -0.27742174 0.2901489 0.36013752 -0.36407042
-0.36086035 0.22864498 -0.02399815 0.008446434 -0.13048118 0.15506056 -0.044432994 -0.66992927
-0.4117346 0.8914853 -0.19014977 -0.04721889 0.46779662 0.6365345 0.02163884 0.32111865
-0.7770406 0.7130753 0.31069285 -0.64802575 -0.03190245 -0.6784097 -0.0029133637 -0.52088195
0.67820287 -0.021936242 0.35081196 0.31324965 0.28938815 -0.14341699 -0.42450535 -0.42108008
1.2052457 0.21661606 0.46685386 -0.967663 1.2969891 -0.4045014 -0.4261873 -0.076369934
0.28019398 -0.20849913 0.32776126 -1.4030659 -0.11385942 0.2397621 -0.4663984 0.50038266
0.736526 -1.1067352 0.017219076 -0.8719699 -0.8304781 0.2235002 -0.08429899 0.9736726
-0.9490218 -0.10286375 -0.21772894 -0.9710988 0.43221888 -0.851369 -0.9589967 0.7028058
0.40551648 -0.97171926 0.6778297 -0.40673733 -0.18972349 0.01660506 -0.62913984 0.3385744
-0.07361538 -1.183355 0.01058541 0.074774764 -0.6340011 0.82681674 -0.9276545 -0.2097034
-0.77741206 0.1719373 1.5018861 -0.08860937 0.83698595 0.08020375 -0.7044061 -1.242977
-0.5914798 -0.9703369 0.5026365 -0.07600428 0.56860065 -0.5625591 -0.17262109 0.2183554
-0.64032567 0.022352815 0.33773896 -0.01832662 0.21559939 -1.431539 0.18016782 0.2626413
-0.98179674 0.7642242 -0.05379539 0.29058778 -0.37295586 0.22317812 -0.54461735 -0.6131857
-1.026806 -0.62666136 0.14204392 -0.23270701 -0.021504717 -0.22825424 0.52994305 -0.76813596
-0.1654409 -0.52777493 -0.45298272 -0.52353597 -0.0024820082 -0.32114384 -0.72588617 1.6460255
0.0248816 0.97655475 0.35703027 1.2994183 -0.003615337 0.31088498 0.00090916886 1.4153454

network.8.bias f4 [128]
00000000: 0551 973e d083 aa3f cdb3 32be 4420 03bf
00000010: 4e81 2cbf a855 da3e 25f2 70bf fcaa 67be
00000020: b3ce 903e 8970 aabe 4886 5a3f 40d3 5fbf
00000030: df71 a1be e532 a2be 9f90 10be bc33 1c3f
00000040: 70cb 85bf 0557 a13e 2c0c f33d 056f 8a3d
00000050: 8306 2c3f 5f97 923d 66b5 083f 8a05 01be
00000060: 82d4 c0bd 9e6e 96bd b0ed 98bf 088c 06bf
00000070: 7dab 77bf 338d 12bf 2727 93bf 1b35 b13d
00000080: 715d 163e f887 f5bd e18b f73d e46b e73b
00000090: c3aa 90be 7aba 2cbf 6f4e b5bd 39fa 9b3f
000000a0: 15e1 5c3f e6cb 393e 248c 2cbf 0267 42bf
000000b0: 587e 343e 282d 053f 70d4 6a3f 36d6 afbe
000000c0: 7ac1 0abe 4709 e83e 59ee 993e 8934 2cbe
000000d0: 5979 ee3e fc35 ce3e fef1 e63e b4fe 13bf
000000e0: 3be1 a2bf 3029 023e 4b7e 063f b904 463f
000000f0: 1949 a8be e2fa 853e 0a07 7ebf a71b 6a3d
00000100: 593e 0bbd c84f 823e 8848 ca3c b5ac fc3e
00000110: 2e19 063f dfba 793e cc24 c63d cd17 12be
00000120: 750f a03e 3829 0dbf 81d4 0abd 4b62 8fbe
00000130: 8135 28bd cc3d 73bf 07f3 5f3e a143 8fbd
00000140: 1f7c c8bc 7ec3 79bb 2eba 2cbe 1bd8 533f
00000150: ea3a 793f 3ad1 2e3e 2b0b 0cbf f8f3 efbd
00000160: c29a 093e 65a9 69bf 2f6a c9be 3923 f03e
00000170: df16 a23e a573 30be 0399 d5be 830a f03c
00000180: e92c 4bbf 2a0c d8bd ba7e d83d 622b 4dbf
00000190: 940d 0e3f 4fc6 15be 3921 eebe da66 a8be
000001a0: 68d2 0c3e af0f ca3f 5625 513e 6716 97be
000001b0: 6de4 d23e daca 06bf da16 41bf 9efa 043f
000001c0: 3d6f c03c a541 0cbf 1415 8abe 0890 3c38
000001d0: dce8 3c3f 0005 133e 0071 863d 1163 0abf
000001e0: 2276 4abf 0750 4a3e 2e98 cd3e 6e15 4b3e
000001f0: 3ac7 463f ab04 68be 6792 293f da85 08bf
0.29554 1.3321476 -0.17451401 -0.5122111 -0.67384803 0.42643476 -0.94119483 -0.22623819
0.282827 -0.33288983 0.85361147 -0.87431717 -0.3153219 -0.31679454 -0.14117669 0.6101644
-1.0452709 0.31511703 0.11867556 0.067594565 0.67197436 0.07157778 0.5340179 -0.12599769
-0.09415533 -0.07345317 -1.1947536 -0.5255742 -0.96746045 -0.572467 -1.1496323 0.08652707
0.14684083 -0.119888246 0.12087227 0.007062422 -0.2825528 -0.6747204 -0.08852851 1.2185737
0.8628095 0.18144187 -0.6740134 -0.7593843 0.17626321 0.5202203 0.91730404 -0.34343117
-0.13550368 0.45319578 0.30064657 -0.16816916 0.46576956 0.40275562 0.451065 -0.5781052
-1.2724985 0.12711024 0.5253646 0.77350956 -0.3286827 0.2616797 -0.9922949 0.057155278
-0.033995006 0.25451493 0.024692789 0.49350515 0.5238217 0.24387692 0.09674987 -0.14266892
0.31261793 -0.5514102 -0.033894066 -0.2800468 -0.04106665 -0.9501617 0.21870051 -0.06995321
-0.024473248 -0.0038110907 -0.16867897 0.82751626 0.9735552 0.17072001 -0.5470454 -0.11716455
0.13437942 -0.912741 -0.39338824 0.46901873 0.31658074 -0.17231615 -0.417183 0.029301887
-0.793654 -0.10549195 0.10571046 -0.8014432 0.5548947 -0.1462643 -0.46509722 -0.3289097
0.13752139 1.5786036 0.20424399 -0.2950928 0.411899 -0.52653277 -0.75425494 0.5194491
0.023490543 -0.54787666 -0.26969206 4.4956832e-05 0.73792815 0.14357376 0.06564522 -0.54057413
-0.79086506 0.1975709 0.40155166 0.19832394 0.77647746 -0.2265803 0.6623902 -0.5332924

network.10.weight f4 [128, 128]
00000000: 06f7 e53d 3f3a 2a3e 1c5f ee3e b611 8fbd
00000010: 0334 64be d703 7d3e 9463 76bd 6b19 153e
00000020: a9f4 0e3d e8db 8b3e ada9 2ebe 286a 283d
00000030: 7488 d53f 02e3 0b3d 9ec9 6c3f c860 c2bd
00000040: a46f a33d e253 173e ade3 37be afc4 cabd
00000050: b784 593d a0ad b23e 1d4d eabd 53cd 18be
00000060: 30a1 f6bc 34ff 3f3e 7219 94bd 737f f83d
00000070: 9f9c febd 2d6a 5dbe 8ae2 20be e2dd 1ebf
00000080: c5c0 a9bb 5bba 3c3f 52fe 0b3d f57f 18be
00000090: eb42 4f3c f125 d43d 5557 8bbe 8c68 87be
000000a0: 5f56 fb3b d60a 933e 1130 a93e 9ada 323e
000000b0: 2bd7 663e 19ff 83be 9e30 16be 8793 b4bd
000000c0: e132 dcbe cb7b b8bd 0669 5fbd f353 a23d
000000d0: c5d5 83be 9dbb b5be 1a11 d03d 8bff d93e
000000e0: 5f74 a8bd 6b6a eb3d ed92 25be e4ca 83be
000000f0: e2ec 193c b4a4 14be fe2e 3abe 1d64 f53e
00000100: d8ca 01be c8b6 3fbb 78c3 b43e 4d0d 15be
00000110: 35b1 b0bf 9281 a73d aa9e 373d 1428 423e
00000120: 8140 1e3e ed4f d93e ea57 22be 38dc e73d
00000130: 6a45 a6bd fe42 3d3d 82f6 41bd 99fb 0c3f
00000140: 37c1 b23d f7f0 6d3e eec0 d2bd 21d5 1b3d
00000150: 5567 1fbd 4d46 86bc 479e ab3e 9fd9 91bc
00000160: b72e 4a3e 51f8 083e 5f2e 29be 552f 253e
00000170: 99a5 8dbe 9d1a 26bd a9ca c3bd 8eef 153e
00000180: 6584 4b3e 7644 33be 8aae 99bc 8f9c 9ebd
00000190: fd84 12bf aa51 1cbd 162f 53bd ab7d 303d
000001a0: cafc 20be 359e 1c3d 8e67 323d 9b19 713e
000001b0: 972d cd3a e25d cbbe 82b6 58bd 1f4b 65be
000001c0: f781 493e f808 fa3d fd22 f0bc 238e 0abe
000001d0: a803 c2be 1313 0d3e 5f04 66be dd67 19bd
000001e0: 4358 0c3e 844f fcbd 92ec 853d 77a7 403e
000001f0: bf3c 383e 1289 aebd 31d0 163e c029 e43d
00000200: 7f97 aa3c b9ad 0a3e 7c52 623e 9848 a83d
00000210: d59e 4bbe 303b 10be 40bf fe3c 48df 03be
00000220: f43e 813d f74c 84bd f10a d03d 39d9 30bd
00000230: a3a9 d7bc 0bc7 abbd 530f e43d 39aa 14bc
00000240: 76e5 493d 98c7 a33b b62a 743d 72e3 b6bc
00000250: 569a 403d 7d1b 2d3d 2022 2fbd b212 813d
00000260: d5c6 04bd a20b 83bd 3e8e febd b5dd b23c
00000270: 4a9a bf3c d298 97bd 0144 6b3d 2fc8 303d
00000280: 2429 8b3d 10f7 33bd f865 adbc d3aa 56bd
00000290: e70a 74bd 94a5 ab3d 63c4 823d a1a5 5dbd
000002a0: 0b0f 023e cc5a cebb 005e 2a3d 23dd 89bd
000002b0: dff6 49bd 3b7d fd3d 2edc 48be ebfa 13bd
000002c0: 40ac 743d cc8f e73c 3d74 80bc 62b9 923c
000002d0: 6ba5 3e3c e00a b5bc f7eb 833d 2d92 cb3d
000002e0: 0727 3bbd 7b8c 03bd 664f 75bd 40aa 6b3d
000002f0: 07ee 6ebc 804c d5bd 2f89 db3d 82bb 1c3d
00000300: 48f7 53bb f491 23bd 0267 df3c d0e3 233c
00000310: d74f 523d 5b98 b83d 4bda 28bd bca6 19bd
00000320: 0695 35bd d0f1 b4bd aad8 dfbd bfad bb3b
00000330: 240a a4bd 371e 443d f611 ae3a 2f44 be3e
00000340: 817e 6a3a a9e5 543c 57dd 9b3c b9e7 babc
00000350: 9872 35bd 185e 20be 6949 4b3d a8e0 ec3c
00000360: c283 1dbe 85b0 89bc 66cd 4f3c d828 56be
00000370: a9b4 08bb c53e 43bc f1d0 18bd 89fa 903c
00000380: 299b d5bd d00f 7cbc 2e10 17bc 2fa8 1ebd
00000390: 85bc 52bd 12f1 a3bd 9683 eb3c 9c20 5c3c
000003a0: 69da 3dbb e3d5 94bd cfdb ef3c 618f 483e
000003b0: a907 0b3e 2bbd 383b 6d91 2dbe 076b f73d
000003c0: da8b 983b f8c8 863c 4335 9f3c 1f11 f73c
000003d0: 6b54 fcbd 472b 6e3c 6c64 9abc 22f5 aebb
000003e0: a226 35bd 27c9 c7bc 9418 e13c 512d 9dbd
000003f0: 5582 803d 8641 9ebb 2915 c83d 1733 b1bc
0.112287566 0.16623782 0.46556938 -0.069858 -0.22285466 0.24708496 -0.06015356 0.14560477
0.034901295 0.27316213 -0.17056914 0.041116863 1.6682267 0.03415204 0.92495143 -0.09491116
0.07980278 0.14778093 -0.17957945 -0.09900796 0.053105082 0.3489809 -0.114404894 -0.14922075
-0.030106157 0.18749696 -0.07231416 0.12133684 -0.12432217 -0.21622534 -0.15711418 -0.62057316
-0.0051804506 0.73721856 0.034178086 -0.14892562 0.012650232 0.10358799 -0.27215067 -0.2644695
0.0076702083 0.28719205 0.33044484 0.17466202 0.22543018 -0.25780562 -0.14666983 -0.08817201
-0.43007568 -0.09007987 -0.054543518 0.07926168 -0.2574903 -0.354947 0.10159512 0.42577776
-0.08225321 0.11494907 -0.16169329 -0.2574073 0.009394856 -0.14515954 -0.18181989 0.47927943
-0.12675035 -0.0029253233 0.3530538 -0.14555855 -1.3804079 0.081790105 0.04482905 0.18960601
0.15454294 0.4244379 -0.15853849 0.113213 -0.081187084 0.046206467 -0.04735423 0.5507141
0.08728259 0.23236452 -0.10290705 0.038045052 -0.038916904 -0.016390944 0.33519194 -0.017803965
0.19744383 0.13375975 -0.16521595 0.16131337 -0.27665403 -0.040552724 -0.09560139 0.14642164
0.19874723 -0.17506585 -0.018759985 -0.07744705 -0.57234174 -0.03816382 -0.051558577 0.043088596
-0.15721431 0.038236815 0.04355579 0.23544924 0.0015653846 -0.39720064 -0.052908428 -0.22391938
0.19678484 0.12208742 -0.029313559 -0.13530783 -0.37893414 0.13776807 -0.22462605 -0.037452567
0.13705544 -0.12319854 0.06539263 0.18813883 0.17991923 -0.08522238 0.14727856 0.11140776
0.020824192 0.13542832 0.22101778 0.08216971 -0.19884808 -0.14085078 0.031097054 -0.12878144
0.063108355 -0.064599924 0.10158337 -0.04317591 -0.026326006 -0.08387574 0.11135735 -0.009073787
0.049291097 0.0049981587 0.059611045 -0.022325251 0.047022186 0.042262543 -0.042757154 0.06302394
-0.032416184 -0.06398703 -0.12429474 0.021834234 0.023389 -0.07402195 0.0574379 0.04315966
0.06794956 -0.04393679 -0.021166787 -0.052409004 -0.05958071 0.08381191 0.06385114 -0.054113034
0.12701051 -0.006297445 0.04159355 -0.067316316 -0.0493077 0.123774014 -0.19615242 -0.036127966
0.059734583 0.02826681 -0.015680427 0.017910663 0.011636118 -0.022099912 0.06441491 0.0993999
-0.045691516 -0.032116394 -0.059890173 0.05753541 -0.014583117 -0.10414982 0.10719525 0.03826476
-0.0032343436 -0.039934114 0.027270798 0.010003045 0.051345672 0.090134345 -0.041223805 -0.037512526
-0.044331573 -0.088351846 -0.10929997 0.0057274993 -0.08009747 0.047880378 0.0013280499 0.37161395
0.0008945242 0.012994208 0.019026441 -0.022815572 -0.04429874 -0.15660894 0.049630556 0.028915718
-0.15382293 -0.016807804 0.012683248 -0.20914018 -0.0020859635 -0.011916821 -0.037308637 0.01769759
-0.10429985 -0.015384629 -0.009220166 -0.03873461 -0.051449317 -0.08004965 0.028749269 0.013435509
-0.0028969294 -0.07267358 0.029279618 0.19585945 0.13577141 0.0028188925 -0.16950007 0.12080961
0.0046553435 0.016453251 0.019434577 0.030159531 -0.12320789 0.014536685 -0.018846713 -0.0053392807
-0.044226296 -0.02438791 0.02747754 -0.07674659 0.06274859 -0.0048295883 0.09769661 -0.021630807

network.10.bias f4 [128]
00000000: 6756 57bd 135b b83d 9be1 d4bc 47f4 773d
00000010: fbde 3fbf d4fc bdbe 382e a9be d9fc 06bc
00000020: ca1b 99bb fe8a 9f3e c020 903c d23c 313f
00000030: f0df ccbd 2a50 b63e f585 2e3e b0b4 d23e
00000040: 41fb b43f 0042 8aba 0483 7a3e 444a 4bbf
00000050: 6621 073e dbcc 203e d02e c9be 552c 953e
00000060: 77e0 f7bc 19d0 63bd 093f 70bf 0009 6ebe
00000070: 2f7e a0be dc3b e3be 471b 863e 6712 dfbe
00000080: fe29 0cbf 2df6 4e3c d0b9 d53b a9c4 bf3e
00000090: 8e5a 1f3e 9c5f 383b 3482 fabc 3ae7 fb3d
000000a0: 579a 65bf e407 863a d20d 13be 6f1d c3be
000000b0: 8f0f 803e dccf ed3e 8488 ba3d a63b 343e
000000c0: de2b 7a3e 6d1d 5d3e fae4 4abb cb21 ab3a
000000d0: 3b13 b73e 4359 30bd 6d7c 6ebe 0740 0c3e
000000e0: a088 823c 93ab 0dbe ba6b a3bb 3b8e d2be
000000f0: 7c4b f53d 1627 5c3a e352 963e 3255 65be
00000100: 7b81 d8be f218 8bbf 5612 9b3e 10f9 b1bd
00000110: 5ca1 5c3c b4e3 c6bd 80cf bbbd 1c50 883d
00000120: 5f72 afbe 2830 5fbd db15 13be 4064 9a3b
00000130: cd8b 19be 777a 47bf 6af3 ba38 099d cdbe
00000140: fe3c 7bbc 821e f1bc a9d8 57bd 6f8c 213d
00000150: 156e c6be ff78 383f b4b8 26be 0890 02bb
00000160: 73fc 50bc aead 10be 76ad 59bc 00d8 b43e
00000170: 4a87 a73e 4e3b 17be 5b4b 17be bcac 8ebd
00000180: 31ea a23d d90c 483f 82d0 2c3e 433f 983c
00000190: 06be 39bb 7969 c33b f36b b4bc 8e3d 01bb
000001a0: cd44 bdbd 7897 d13e 762c 6e3c 1286 b0bc
000001b0: a133 903c 5077 21be 78bb c03f abc3 8f39
000001c0: 7238 1d3b 2e79 943e 2cad b8be 33fd 963b
000001d0: b1b9 ccbc d074 f13e b689 dc3b 91c9 2ebc
000001e0: 35b4 81bf e05d 4a3d 598a 6a3d 763c 0f3d
000001f0: 2e2e 79be f0ea 73bf 3209 ce3b bbea 86be
-0.052572634 0.09001746 -0.025986483 0.060535695 -0.74949616 -0.37106955 -0.33043075 -0.0082389945
-0.004672502 0.3116073 0.017593741 0.6923343 -0.1000365 0.35608035 0.17043288 0.4115348
1.4139177 -0.0010548234 0.24464041 -0.79410195 0.13196334 0.15703146 -0.39293528 0.29135385
-0.0302584 -0.05561838 -0.93846184 -0.2324562 -0.3134627 -0.44381607 0.26192686 -0.43568727
-0.54751575 0.012631935 0.0065223947 0.37454727 0.15561888 0.002813316 -0.030579664 0.12299962
-0.8968863 0.001022574 -0.14360741 -0.38108394 0.2501187 0.46447647 0.091080695 0.17600879
0.24430797 0.21593256 -0.0030959235 0.0013056336 0.3575686 -0.043053877 -0.23289652 0.136963
0.015934289 -0.13834982 -0.0049872072 -0.41124138 0.11977288 0.0008398158 0.29360113 -0.2239578
-0.42286286 -1.0866988 0.30287427 -0.08690083 0.013466205 -0.097114 -0.09170437 0.06655905
-0.34266946 -0.054489285 -0.14363806 0.0047116578 -0.14994736 -0.7792124 8.9145105e-05 -0.4015887
-0.015334366 -0.029433493 -0.052696858 0.03944057 -0.3875586 0.72059625 -0.16281396 -0.0019922275
-0.012755501 -0.14128754 -0.013285985 0.35321045 0.32720405 -0.14768717 -0.1477484 -0.0696654
0.07954825 0.78144604 0.16876414 0.018584853 -0.0028342023 0.005963501 -0.02202413 -0.0019720527
-0.09241638 0.40935874 0.0145369675 -0.021548305 0.017602744 -0.1576817 1.5057211 0.0002742087
0.0023989943 0.28998703 -0.3606962 0.0046078204 -0.024990888 0.47159433 0.0067302836 -0.010668174
-1.013312 0.049405932 0.057260845 0.03496977 -0.24334022 -0.9528036 0.0062877173 -0.2635096
